…
   "cell_type": "code",
   "execution_count": 280,
   "metadata": {
    "colab": {
     "base_uri": "https://localhost:8080/"
    },
    "executionInfo": {
     "elapsed": 971,
     "status": "ok",
     "timestamp": 1610214448656,
     "user": {
      "displayName": "santha lakshmi",
      "photoUrl": "",
      "userId": "11974634202878261016"
     },
     "user_tz": -330
    },
    "id": "hk8yk-lso2UB",
    "outputId": "dff6ac25-f845-4d95-f70d-fe4dd68ee31b"
   },
   "outputs": [
    {
     "data": {
      "text/plain": [
       "CatDogModel(\n",
       "  (network): ResNet(\n",
       "    (conv1): Conv2d(3, 64, kernel_size=(7, 7), stride=(2, 2), padding=(3, 3), bias=False)\n",
       "    (bn1): BatchNorm2d(64, eps=1e-05, momentum=0.1, affine=True, track_running_stats=True)\n",
       "    (relu): ReLU(inplace=True)\n",
       "    (maxpool): MaxPool2d(kernel_size=3, stride=2, padding=1, dilation=1, ceil_mode=False)\n",
       "    (layer1): Sequential(\n",
       "      (0): BasicBlock(\n",
       "        (conv1): Conv2d(64, 64, kernel_size=(3, 3), stride=(1, 1), padding=(1, 1), bias=False)\n",
       "        (bn1): BatchNorm2d(64, eps=1e-05, momentum=0.1, affine=True, track_running_stats=True)\n",
       "        (relu): ReLU(inplace=True)\n",
       "        (conv2): Conv2d(64, 64, kernel_size=(3, 3), stride=(1, 1), padding=(1, 1), bias=False)\n",
       "        (bn2): BatchNorm2d(64, eps=1e-05, momentum=0.1, affine=True, track_running_stats=True)\n",
       "      )\n",
       "      (1): BasicBlock(\n",
       "        (conv1): Conv2d(64, 64, kernel_size=(3, 3), stride=(1, 1), padding=(1, 1), bias=False)\n",
       "        (bn1): BatchNorm2d(64, eps=1e-05, momentum=0.1, affine=True, track_running_stats=True)\n",
       "        (relu): ReLU(inplace=True)\n",
       "        (conv2): Conv2d(64, 64, kernel_size=(3, 3), stride=(1, 1), padding=(1, 1), bias=False)\n",
       "        (bn2): BatchNorm2d(64, eps=1e-05, momentum=0.1, affine=True, track_running_stats=True)\n",
       "      )\n",
       "    )\n",
       "    (layer2): Sequential(\n",
       "      (0): BasicBlock(\n",
       "        (conv1): Conv2d(64, 128, kernel_size=(3, 3), stride=(2, 2), padding=(1, 1), bias=False)\n",
       "        (bn1): BatchNorm2d(128, eps=1e-05, momentum=0.1, affine=True, track_running_stats=True)\n",
       "        (relu): ReLU(inplace=True)\n",
       "        (conv2): Conv2d(128, 128, kernel_size=(3, 3), stride=(1, 1), padding=(1, 1), bias=False)\n",
       "        (bn2): BatchNorm2d(128, eps=1e-05, momentum=0.1, affine=True, track_running_stats=True)\n",
       "        (downsample): Sequential(\n",
       "          (0): Conv2d(64, 128, kernel_size=(1, 1), stride=(2, 2), bias=False)\n",
       "          (1): BatchNorm2d(128, eps=1e-05, momentum=0.1, affine=True, track_running_stats=True)\n",
       "        )\n",
       "      )\n",
       "      (1): BasicBlock(\n",
       "        (conv1): Conv2d(128, 128, kernel_size=(3, 3), stride=(1, 1), padding=(1, 1), bias=False)\n",
       "        (bn1): BatchNorm2d(128, eps=1e-05, momentum=0.1, affine=True, track_running_stats=True)\n",
       "        (relu): ReLU(inplace=True)\n",
       "        (conv2): Conv2d(128, 128, kernel_size=(3, 3), stride=(1, 1), padding=(1, 1), bias=False)\n",
       "        (bn2): BatchNorm2d(128, eps=1e-05, momentum=0.1, affine=True, track_running_stats=True)\n",
       "      )\n",
       "    )\n",
       "    (layer3): Sequential(\n",
       "      (0): BasicBlock(\n",
       "        (conv1): Conv2d(128, 256, kernel_size=(3, 3), stride=(2, 2), padding=(1, 1), bias=False)\n",
       "        (bn1): BatchNorm2d(256, eps=1e-05, momentum=0.1, affine=True, track_running_stats=True)\n",
       "        (relu): ReLU(inplace=True)\n",
       "        (conv2): Conv2d(256, 256, kernel_size=(3, 3), stride=(1, 1), padding=(1, 1), bias=False)\n",
       "        (bn2): BatchNorm2d(256, eps=1e-05, momentum=0.1, affine=True, track_running_stats=True)\n",
       "        (downsample): Sequential(\n",
       "          (0): Conv2d(128, 256, kernel_size=(1, 1), stride=(2, 2), bias=False)\n",
       "          (1): BatchNorm2d(256, eps=1e-05, momentum=0.1, affine=True, track_running_stats=True)\n",
       "        )\n",
       "      )\n",
       "      (1): BasicBlock(\n",
       "        (conv1): Conv2d(256, 256, kernel_size=(3, 3), stride=(1, 1), padding=(1, 1), bias=False)\n",
       "        (bn1): BatchNorm2d(256, eps=1e-05, momentum=0.1, affine=True, track_running_stats=True)\n",
       "        (relu): ReLU(inplace=True)\n",
       "        (conv2): Conv2d(256, 256, kernel_size=(3, 3), stride=(1, 1), padding=(1, 1), bias=False)\n",
       "        (bn2): BatchNorm2d(256, eps=1e-05, momentum=0.1, affine=True, track_running_stats=True)\n",
       "      )\n",
       "    )\n",
       "    (layer4): Sequential(\n",
       "      (0): BasicBlock(\n",
       "        (conv1): Conv2d(256, 512, kernel_size=(3, 3), stride=(2, 2), padding=(1, 1), bias=False)\n",
       "        (bn1): BatchNorm2d(512, eps=1e-05, momentum=0.1, affine=True, track_running_stats=True)\n",
       "        (relu): ReLU(inplace=True)\n",
       "        (conv2): Conv2d(512, 512, kernel_size=(3, 3), stride=(1, 1), padding=(1, 1), bias=False)\n",
       "        (bn2): BatchNorm2d(512, eps=1e-05, momentum=0.1, affine=True, track_running_stats=True)\n",
       "        (downsample): Sequential(\n",
       "          (0): Conv2d(256, 512, kernel_size=(1, 1), stride=(2, 2), bias=False)\n",
       "          (1): BatchNorm2d(512, eps=1e-05, momentum=0.1, affine=True, track_running_stats=True)\n",
       "        )\n",
       "      )\n",
       "      (1): BasicBlock(\n",
       "        (conv1): Conv2d(512, 512, kernel_size=(3, 3), stride=(1, 1), padding=(1, 1), bias=False)\n",
       "        (bn1): BatchNorm2d(512, eps=1e-05, momentum=0.1, affine=True, track_running_stats=True)\n",
       "        (relu): ReLU(inplace=True)\n",
       "        (conv2): Conv2d(512, 512, kernel_size=(3, 3), stride=(1, 1), padding=(1, 1), bias=False)\n",
       "        (bn2): BatchNorm2d(512, eps=1e-05, momentum=0.1, affine=True, track_running_stats=True)\n",
       "      )\n",
       "    )\n",
       "    (avgpool): AdaptiveAvgPool2d(output_size=(1, 1))\n",
       "    (fc): Sequential(\n",
       "      (0): Linear(in_features=512, out_features=2, bias=True)\n",
       "      (1): Sigmoid()\n",
       "    )\n",
       "  )\n",
       ")"
      ]
     },
     "execution_count": 280,
     "metadata": {
      "tags": []
     },
     "output_type": "execute_result"
    }
   ],
   "source": [
    "#model = to_device(CatDogModel(), device)\r\n",
    "model = to_device(CatDogModel(),device)\r\n",
    "model"
   ]
  },
…
